#[version = "0.0.5"]
def @main(%x0 : Tensor[(18, 14), float16] /* ty=Tensor[(18, 14), float16] span=from_string:3:13 */, %x1 : Tensor[(13, 14), float16] /* ty=Tensor[(13, 14), float16] span=from_string:5:21 */, %x2 : Tensor[(13), float16] /* ty=Tensor[(13), float16] span=from_string:15:26 */, %x3 : Tensor[(13), float16] /* ty=Tensor[(13), float16] span=from_string:38:28 */, %x4 : Tensor[(13), float16] /* ty=Tensor[(13), float16] span=from_string:38:33 */, %x5 : Tensor[(13), float16] /* ty=Tensor[(13), float16] span=from_string:38:38 */, %x6 : Tensor[(13), float16] /* ty=Tensor[(13), float16] span=from_string:38:43 */, %x7 : Tensor[(14), float16] /* ty=Tensor[(14), float16] span=from_string:52:27 */, %x8 : Tensor[(14), float16] /* ty=Tensor[(14), float16] span=from_string:52:32 */, hash="d59189663b5c284e", ) -> (Tensor[(18, 13), float16], Tensor[(18, 14), float16], Tensor[(18, 13), float16]) {
  %26 = fn (%p09: Tensor[(18, 14), float16] /* ty=Tensor[(18, 14), float16] */, Primitive=1, hash="37a0132e5d09a3c5") -> Tensor[(18, 14), float16] {
    %25 = tanh(%p09) /* ty=Tensor[(18, 14), float16] */;
    round(%25) /* ty=Tensor[(18, 14), float16] */
  } /* ty=fn (Tensor[(18, 14), float16]) -> Tensor[(18, 14), float16] */;
  %27 = %26(%x0) /* ty=Tensor[(18, 14), float16] */;
  %28 = fn (%p08: Tensor[(18, 14), float16] /* ty=Tensor[(18, 14), float16] */, %p14: Tensor[(13, 14), float16] /* ty=Tensor[(13, 14), float16] */, Primitive=1, hash="3b5bbda270b82f7e") -> Tensor[(18, 13), float16] {
    %24 = nn.dense(%p08, %p14, units=13) /* ty=Tensor[(18, 13), float16] */;
    tan(%24) /* ty=Tensor[(18, 13), float16] */
  } /* ty=fn (Tensor[(18, 14), float16], Tensor[(13, 14), float16]) -> Tensor[(18, 13), float16] */;
  %29 = %28(%27, %x1) /* ty=Tensor[(18, 13), float16] */;
  %30 = fn (%p07: Tensor[(18, 13), float16] /* ty=Tensor[(18, 13), float16] */, Primitive=1, hash="2d04358880ce7674") -> Tensor[(18, 13), float16] {
    %23 = sigmoid(%p07) /* ty=Tensor[(18, 13), float16] */;
    multiply(%23, %23) /* ty=Tensor[(18, 13), float16] */
  } /* ty=fn (Tensor[(18, 13), float16]) -> Tensor[(18, 13), float16] */;
  %31 = %30(%29) /* ty=Tensor[(18, 13), float16] */;
  %32 = fn (%p06: Tensor[(18, 13), float16] /* ty=Tensor[(18, 13), float16] */, Primitive=1, hash="065e0fa851c1d426") -> Tensor[(18, 13), float16] {
    %21 = floor(%p06) /* ty=Tensor[(18, 13), float16] */;
    %22 = round(%21) /* ty=Tensor[(18, 13), float16] */;
    subtract(%22, %22) /* ty=Tensor[(18, 13), float16] */
  } /* ty=fn (Tensor[(18, 13), float16]) -> Tensor[(18, 13), float16] */;
  %33 = %32(%31) /* ty=Tensor[(18, 13), float16] */;
  %34 = fn (%p05: Tensor[(18, 13), float16] /* ty=Tensor[(18, 13), float16] */, Primitive=1, hash="6adf04683c47de10") -> Tensor[(18, 13), float16] {
    round(%p05) /* ty=Tensor[(18, 13), float16] */
  } /* ty=fn (Tensor[(18, 13), float16]) -> Tensor[(18, 13), float16] */;
  %35 = %34(%33) /* ty=Tensor[(18, 13), float16] */;
  %36 = fn (%p04: Tensor[(18, 13), float16] /* ty=Tensor[(18, 13), float16] */, %p13: Tensor[(18, 13), float16] /* ty=Tensor[(18, 13), float16] */, Primitive=1, hash="f7a5b903a45e4fde") -> Tensor[(18, 13), float16] {
    %20 = add(%p04, %p13) /* ty=Tensor[(18, 13), float16] */;
    reshape(%20, newshape=[18, 13]) /* ty=Tensor[(18, 13), float16] */
  } /* ty=fn (Tensor[(18, 13), float16], Tensor[(18, 13), float16]) -> Tensor[(18, 13), float16] */;
  %37 = %36(%35, %31) /* ty=Tensor[(18, 13), float16] */;
  %38 = fn (%p03: Tensor[(18, 13), float16] /* ty=Tensor[(18, 13), float16] */, %p12: Tensor[(13), float16] /* ty=Tensor[(13), float16] */, Primitive=1, hash="b256f6ea1e0ccbb1") -> Tensor[(18, 13), float16] {
    %18 = nn.bias_add(%p03, %p12) /* ty=Tensor[(18, 13), float16] */;
    %19 = nn.relu(%18) /* ty=Tensor[(18, 13), float16] */;
    sin(%19) /* ty=Tensor[(18, 13), float16] */
  } /* ty=fn (Tensor[(18, 13), float16], Tensor[(13), float16]) -> Tensor[(18, 13), float16] */;
  %39 = %38(%37, %x2) /* ty=Tensor[(18, 13), float16] */;
  %40 = fn (%p02: Tensor[(18, 13), float16] /* ty=Tensor[(18, 13), float16] */, %p11: Tensor[(18, 13), float16] /* ty=Tensor[(18, 13), float16] */, Primitive=1, hash="07883a6fd188c5f4") -> Tensor[(18, 13), float16] {
    %16 = trunc(%p02) /* ty=Tensor[(18, 13), float16] */;
    %17 = subtract(%16, %p11) /* ty=Tensor[(18, 13), float16] */;
    tan(%17) /* ty=Tensor[(18, 13), float16] */
  } /* ty=fn (Tensor[(18, 13), float16], Tensor[(18, 13), float16]) -> Tensor[(18, 13), float16] */;
  %41 = %40(%39, %29) /* ty=Tensor[(18, 13), float16] */;
  %42 = fn (%p01: Tensor[(18, 13), float16] /* ty=Tensor[(18, 13), float16] */, Primitive=1, hash="cc47c287587e243f") -> Tensor[(18, 1), float16] {
    sum(%p01, axis=[1], keepdims=True) /* ty=Tensor[(18, 1), float16] */
  } /* ty=fn (Tensor[(18, 13), float16]) -> Tensor[(18, 1), float16] */;
  %43 = fn (%p010: Tensor[(18, 13), float16] /* ty=Tensor[(18, 13), float16] */, Primitive=1, hash="fcb155a78106f15d") -> Tensor[(18, 13), float16] {
    negative(%p010) /* ty=Tensor[(18, 13), float16] */
  } /* ty=fn (Tensor[(18, 13), float16]) -> Tensor[(18, 13), float16] */;
  %52 = fn (%p013: Tensor[(18, 13), float16] /* ty=Tensor[(18, 13), float16] */, Primitive=1, hash="b0a2345d33362176") -> Tensor[(18, 13), float16] {
    %51 = nn.relu(%p013) /* ty=Tensor[(18, 13), float16] */;
    trunc(%51) /* ty=Tensor[(18, 13), float16] */
  } /* ty=fn (Tensor[(18, 13), float16]) -> Tensor[(18, 13), float16] */;
  %53 = %52(%35) /* ty=Tensor[(18, 13), float16] */;
  %54 = fn (%p012: Tensor[(18, 13), float16] /* ty=Tensor[(18, 13), float16] */, Primitive=1, hash="947bfa978bf37943") -> Tensor[(18, 13), float16] {
    %49 = negative(%p012) /* ty=Tensor[(18, 13), float16] */;
    %50 = tanh(%49) /* ty=Tensor[(18, 13), float16] */;
    tanh(%50) /* ty=Tensor[(18, 13), float16] */
  } /* ty=fn (Tensor[(18, 13), float16]) -> Tensor[(18, 13), float16] */;
  %55 = %43(%39) /* ty=Tensor[(18, 13), float16] */;
  %56 = %54(%53) /* ty=Tensor[(18, 13), float16] */;
  %57 = fn (%p011: Tensor[(18, 13), float16] /* ty=Tensor[(18, 13), float16] */, %p15: Tensor[(18, 13), float16] /* ty=Tensor[(18, 13), float16] */, %p21: Tensor[(18, 13), float16] /* ty=Tensor[(18, 13), float16] */, Primitive=1, hash="edf86e03126f2ede") -> Tensor[(18, 13), float16] {
    %44 = multiply(%p011, %p15) /* ty=Tensor[(18, 13), float16] */;
    %45 = abs(%p21) /* ty=Tensor[(18, 13), float16] */;
    %46 = expand_dims(%44, axis=1) /* ty=Tensor[(18, 1, 13), float16] */;
    %47 = ceil(%45) /* ty=Tensor[(18, 13), float16] */;
    %48 = subtract(%46, %47) /* ty=Tensor[(18, 18, 13), float16] */;
    max(%48, axis=[1]) /* ty=Tensor[(18, 13), float16] */
  } /* ty=fn (Tensor[(18, 13), float16], Tensor[(18, 13), float16], Tensor[(18, 13), float16]) -> Tensor[(18, 13), float16] */;
  %58 = %42(%41) /* ty=Tensor[(18, 1), float16] */;
  %59 = %57(%55, %33, %56) /* ty=Tensor[(18, 13), float16] */;
  %60 = fn (%p0: Tensor[(18, 1), float16] /* ty=Tensor[(18, 1), float16] */, %p1: Tensor[(18, 13), float16] /* ty=Tensor[(18, 13), float16] */, %p2: Tensor[(13), float16] /* ty=Tensor[(13), float16] */, %p3: float16 /* ty=float16 */, %p4: float16 /* ty=float16 */, %p5: Tensor[(18, 13), float16] /* ty=Tensor[(18, 13), float16] */, %p6: Tensor[(13), float16] /* ty=Tensor[(13), float16] */, %p7: Tensor[(18, 13), float16] /* ty=Tensor[(18, 13), float16] */, Primitive=1, hash="6b6abc8fcd090d89") -> Tensor[(18, 13), float16] {
    %0 = nn.softmax(%p1, axis=1) /* ty=Tensor[(18, 13), float16] */;
    %1 = round(%0) /* ty=Tensor[(18, 13), float16] */;
    %2 = floor(%p0) /* ty=Tensor[(18, 1), float16] */;
    %3 = cos(%1) /* ty=Tensor[(18, 13), float16] */;
    %4 = add(%p2, %p3) /* ty=Tensor[(13), float16] */;
    %5 = sqrt(%4) /* ty=Tensor[(13), float16] */;
    %6 = divide(%p4, %5) /* ty=Tensor[(13), float16] */;
    %7 = negative(%p6) /* ty=Tensor[(13), float16] */;
    %8 = multiply(%p5, %6) /* ty=Tensor[(18, 13), float16] */;
    %9 = multiply(%7, %6) /* ty=Tensor[(13), float16] */;
    %10 = add(%8, %9) /* ty=Tensor[(18, 13), float16] */;
    %11 = round(%10) /* ty=Tensor[(18, 13), float16] */;
    %12 = round(%p7) /* ty=Tensor[(18, 13), float16] */;
    %13 = multiply(%11, %12) /* ty=Tensor[(18, 13), float16] */;
    %14 = subtract(%2, %3) /* ty=Tensor[(18, 13), float16] */;
    %15 = negative(%13) /* ty=Tensor[(18, 13), float16] */;
    maximum(%14, %15) /* ty=Tensor[(18, 13), float16] */
  } /* ty=fn (Tensor[(18, 1), float16], Tensor[(18, 13), float16], Tensor[(13), float16], float16, float16, Tensor[(18, 13), float16], Tensor[(13), float16], Tensor[(18, 13), float16]) -> Tensor[(18, 13), float16] */;
  %67 = fn (%p015: Tensor[(18, 14), float16] /* ty=Tensor[(18, 14), float16] */, Primitive=1, relay.reshape_only=1, hash="194af65615a0a7d6") -> Tensor[(18, 2, 7), float16] {
    reshape(%p015, newshape=[18, 2, 7]) /* ty=Tensor[(18, 2, 7), float16] */
  } /* ty=fn (Tensor[(18, 14), float16]) -> Tensor[(18, 2, 7), float16] */;
  %68 = %67(%27) /* ty=Tensor[(18, 2, 7), float16] */;
  %69 = fn (%p016: Tensor[(18, 2, 7), float16] /* ty=Tensor[(18, 2, 7), float16] */, Primitive=1, hash="7a1f82e33ad793ce") -> Tensor[(18, 2, 1), float16] {
    mean(%p016, axis=[2], keepdims=True) /* ty=Tensor[(18, 2, 1), float16] */
  } /* ty=fn (Tensor[(18, 2, 7), float16]) -> Tensor[(18, 2, 1), float16] */;
  %70 = %69(%68) /* ty=Tensor[(18, 2, 1), float16] */;
  %71 = fn (%p017: Tensor[(18, 2, 7), float16] /* ty=Tensor[(18, 2, 7), float16] */, %p17: Tensor[(18, 2, 1), float16] /* ty=Tensor[(18, 2, 1), float16] */, Primitive=1, hash="0e09646389570d28") -> Tensor[(18, 2, 1), float16] {
    variance(%p017, %p17, axis=[2], keepdims=True) /* ty=Tensor[(18, 2, 1), float16] */
  } /* ty=fn (Tensor[(18, 2, 7), float16], Tensor[(18, 2, 1), float16]) -> Tensor[(18, 2, 1), float16] */;
  %72 = %71(%68, %70) /* ty=Tensor[(18, 2, 1), float16] */;
  %73 = fn (%p014: Tensor[(18, 2, 7), float16] /* ty=Tensor[(18, 2, 7), float16] */, %p16: Tensor[(18, 2, 1), float16] /* ty=Tensor[(18, 2, 1), float16] */, %p22: Tensor[(18, 2, 1), float16] /* ty=Tensor[(18, 2, 1), float16] */, %p31: float16 /* ty=float16 */, %p41: Tensor[(14), float16] /* ty=Tensor[(14), float16] */, %p51: Tensor[(14), float16] /* ty=Tensor[(14), float16] */, Primitive=1, hash="2f17904aaba6b125") -> Tensor[(18, 14), float16] {
    %61 = add(%p22, %p31) /* ty=Tensor[(18, 2, 1), float16] */;
    %62 = subtract(%p014, %p16) /* ty=Tensor[(18, 2, 7), float16] */;
    %63 = sqrt(%61) /* ty=Tensor[(18, 2, 1), float16] */;
    %64 = divide(%62, %63) /* ty=Tensor[(18, 2, 7), float16] */;
    %65 = reshape(%64, newshape=[18, 14]) /* ty=Tensor[(18, 14), float16] */;
    %66 = multiply(%65, %p41) /* ty=Tensor[(18, 14), float16] */;
    add(%66, %p51) /* ty=Tensor[(18, 14), float16] */
  } /* ty=fn (Tensor[(18, 2, 7), float16], Tensor[(18, 2, 1), float16], Tensor[(18, 2, 1), float16], float16, Tensor[(14), float16], Tensor[(14), float16]) -> Tensor[(18, 14), float16] */;
  %80 = fn (%p018: Tensor[(18, 13), float16] /* ty=Tensor[(18, 13), float16] */, %p18: Tensor[(18, 13), float16] /* ty=Tensor[(18, 13), float16] */, %p23: Tensor[(18, 13), float16] /* ty=Tensor[(18, 13), float16] */, Primitive=1, hash="d61f872a8a2ba2fb") -> Tensor[(18, 13), float16] {
    %74 = nn.softmax(%p018, axis=1) /* ty=Tensor[(18, 13), float16] */;
    %75 = round(%74) /* ty=Tensor[(18, 13), float16] */;
    %76 = trunc(%75) /* ty=Tensor[(18, 13), float16] */;
    %77 = nn.leaky_relu(%76, alpha=0.507132f) /* ty=Tensor[(18, 13), float16] */;
    %78 = nn.leaky_relu(%p18, alpha=0.50118f) /* ty=Tensor[(18, 13), float16] */;
    %79 = multiply(%77, %78) /* ty=Tensor[(18, 13), float16] */;
    subtract(%79, %p23) /* ty=Tensor[(18, 13), float16] */
  } /* ty=fn (Tensor[(18, 13), float16], Tensor[(18, 13), float16], Tensor[(18, 13), float16]) -> Tensor[(18, 13), float16] */;
  %81 = %60(%58, %55, %x6, 1.00136e-05f16 /* ty=float16 */, 1f16 /* ty=float16 */, %59, %x5, %53) /* ty=Tensor[(18, 13), float16] */;
  %82 = %73(%68, %70, %72, 1.00136e-05f16 /* ty=float16 */, %x7, %x8) /* ty=Tensor[(18, 14), float16] */;
  %83 = %80(%56, %41, %37) /* ty=Tensor[(18, 13), float16] */;
  (%81, %82, %83) /* ty=(Tensor[(18, 13), float16], Tensor[(18, 14), float16], Tensor[(18, 13), float16]) span=from_string:3:3 */
}

#[metadata]
{
  "root": 1, 
  "nodes": [
    {
      "type_key": ""
    }, 
    {
      "type_key": "Map", 
      "keys": [
        "VirtualDevice"
      ], 
      "data": [2]
    }, 
    {
      "type_key": "Array", 
      "data": [3]
    }, 
    {
      "type_key": "VirtualDevice", 
      "attrs": {
        "device_type_int": "1", 
        "memory_scope": "15", 
        "target": "4", 
        "virtual_device_id": "0"
      }
    }, 
    {
      "type_key": "Target", 
      "attrs": {
        "attrs": "11", 
        "features": "13", 
        "host": "14", 
        "keys": "10", 
        "kind": "5", 
        "tag": "9"
      }
    }, 
    {
      "type_key": "TargetKind", 
      "attrs": {
        "default_device_type": "1", 
        "default_keys": "7", 
        "name": "6"
      }
    }, 
    {
      "type_key": "runtime.String", 
      "repr_str": "llvm"
    }, 
    {
      "type_key": "Array", 
      "data": [8]
    }, 
    {
      "type_key": "runtime.String", 
      "repr_str": "cpu"
    }, 
    {
      "type_key": "runtime.String"
    }, 
    {
      "type_key": "Array", 
      "data": [8]
    }, 
    {
      "type_key": "Map", 
      "keys": [
        "mtriple"
      ], 
      "data": [12]
    }, 
    {
      "type_key": "runtime.String", 
      "repr_str": "x86_64-unknown-linux-gnu"
    }, 
    {
      "type_key": "Map"
    }, 
    {
      "type_key": "Target", 
      "attrs": {
        "attrs": "11", 
        "features": "13", 
        "host": "0", 
        "keys": "10", 
        "kind": "5", 
        "tag": "9"
      }
    }, 
    {
      "type_key": "runtime.String"
    }
  ], 
  "b64ndarrays": [], 
  "attrs": {"tvm_version": "0.16.0"}
}