#[version = "0.0.5"]
def @main(%x : Tensor[(64, 4), float32] /* ty=Tensor[(64, 4), float32] span=from_string:3:17 */, %weight : Tensor[(3, 4), float32] /* ty=Tensor[(3, 4), float32] span=from_string:3:21 */, %in_bias : Tensor[(3), float32] /* ty=Tensor[(3), float32] span=from_string:4:16 */, hash="511096107f411e44", src_layout="NC", dst_layout="NC3n", ) -> Tensor[(64, 3), float32] {
  %5 = fn (%p01: Tensor[(3, 4), float32] /* ty=Tensor[(3, 4), float32] */, %p11: Tensor[(3, 1), float32] /* ty=Tensor[(3, 1), float32] */, Primitive=1, hash="6311b209ee0e8190", src_layout="NC", dst_layout="NC3n") -> Tensor[(1, 4, 3), float32] {
    %4 = multiply(%p01, %p11) /* ty=Tensor[(3, 4), float32] */;
    layout_transform(%4, src_layout="NC", dst_layout="NC3n") /* ty=Tensor[(1, 4, 3), float32] */
  } /* ty=fn (Tensor[(3, 4), float32], Tensor[(3, 1), float32]) -> Tensor[(1, 4, 3), float32] */;
  %6 = %5(%weight, meta[relay.Constant][0] /* ty=Tensor[(3, 1), float32] */) /* ty=Tensor[(1, 4, 3), float32] */;
  %7 = fn (%p0: Tensor[(64, 4), float32] /* ty=Tensor[(64, 4), float32] */, %p1: Tensor[(1, 4, 3), float32] /* ty=Tensor[(1, 4, 3), float32] */, %p2: Tensor[(3), float32] /* ty=Tensor[(3), float32] */, %p3: Tensor[(3), float32] /* ty=Tensor[(3), float32] */, Primitive=1, hash="49193a2783423cea", weight_layout="NC3n") -> Tensor[(64, 3), float32] {
    %0 = multiply(%p2, %p3) /* ty=Tensor[(3), float32] */;
    %1 = nn.contrib_dense_pack(%p0, %p1, meta[relay.attrs.DensePackAttrs][0]) /* ty=Tensor[(64, 3), float32] */;
    %2 = expand_dims(%0, axis=0) /* ty=Tensor[(1, 3), float32] */;
    %3 = add(%1, %2) /* ty=Tensor[(64, 3), float32] */;
    nn.relu(%3) /* ty=Tensor[(64, 3), float32] */
  } /* ty=fn (Tensor[(64, 4), float32], Tensor[(1, 4, 3), float32], Tensor[(3), float32], Tensor[(3), float32]) -> Tensor[(64, 3), float32] */;
  %7(%x, %6, %in_bias, meta[relay.Constant][1] /* ty=Tensor[(3), float32] span=from_string:6:22 */) /* ty=Tensor[(64, 3), float32] */
}

#[metadata]
{
  "root": 1, 
  "nodes": [
    {
      "type_key": ""
    }, 
    {
      "type_key": "Map", 
      "keys": [
        "relay.Constant", 
        "relay.attrs.DensePackAttrs", 
        "VirtualDevice"
      ], 
      "data": [2, 18, 21]
    }, 
    {
      "type_key": "Array", 
      "data": [3, 10]
    }, 
    {
      "type_key": "relay.Constant", 
      "attrs": {
        "_checked_type_": "6", 
        "data": "0", 
        "span": "0", 
        "virtual_device_": "4"
      }
    }, 
    {
      "type_key": "VirtualDevice", 
      "attrs": {
        "device_type_int": "-1", 
        "memory_scope": "5", 
        "target": "0", 
        "virtual_device_id": "-1"
      }
    }, 
    {
      "type_key": "runtime.String"
    }, 
    {
      "type_key": "relay.TensorType", 
      "attrs": {
        "dtype": "float32", 
        "shape": "7", 
        "span": "0"
      }
    }, 
    {
      "type_key": "Array", 
      "data": [8, 9]
    }, 
    {
      "type_key": "IntImm", 
      "attrs": {
        "dtype": "int32", 
        "span": "0", 
        "value": "3"
      }
    }, 
    {
      "type_key": "IntImm", 
      "attrs": {
        "dtype": "int32", 
        "span": "0", 
        "value": "1"
      }
    }, 
    {
      "type_key": "relay.Constant", 
      "attrs": {
        "_checked_type_": "15", 
        "data": "1", 
        "span": "13", 
        "virtual_device_": "11"
      }
    }, 
    {
      "type_key": "VirtualDevice", 
      "attrs": {
        "device_type_int": "-1", 
        "memory_scope": "12", 
        "target": "0", 
        "virtual_device_id": "-1"
      }
    }, 
    {
      "type_key": "runtime.String"
    }, 
    {
      "type_key": "Span", 
      "attrs": {
        "column": "22", 
        "end_column": "40", 
        "end_line": "6", 
        "line": "6", 
        "source_name": "14"
      }
    }, 
    {
      "type_key": "SourceName", 
      "repr_str": "from_string"
    }, 
    {
      "type_key": "relay.TensorType", 
      "attrs": {
        "dtype": "float32", 
        "shape": "16", 
        "span": "0"
      }
    }, 
    {
      "type_key": "Array", 
      "data": [17]
    }, 
    {
      "type_key": "IntImm", 
      "attrs": {
        "dtype": "int32", 
        "span": "0", 
        "value": "3"
      }
    }, 
    {
      "type_key": "Array", 
      "data": [19]
    }, 
    {
      "type_key": "relay.attrs.DensePackAttrs", 
      "attrs": {
        "out_dtype": "float32", 
        "units": "0", 
        "weight_layout": "20"
      }
    }, 
    {
      "type_key": "runtime.String", 
      "repr_str": "NC3n"
    }, 
    {
      "type_key": "Array", 
      "data": [22]
    }, 
    {
      "type_key": "VirtualDevice", 
      "attrs": {
        "device_type_int": "1", 
        "memory_scope": "34", 
        "target": "23", 
        "virtual_device_id": "0"
      }
    }, 
    {
      "type_key": "Target", 
      "attrs": {
        "attrs": "30", 
        "features": "32", 
        "host": "33", 
        "keys": "29", 
        "kind": "24", 
        "tag": "28"
      }
    }, 
    {
      "type_key": "TargetKind", 
      "attrs": {
        "default_device_type": "1", 
        "default_keys": "26", 
        "name": "25"
      }
    }, 
    {
      "type_key": "runtime.String", 
      "repr_str": "llvm"
    }, 
    {
      "type_key": "Array", 
      "data": [27]
    }, 
    {
      "type_key": "runtime.String", 
      "repr_str": "cpu"
    }, 
    {
      "type_key": "runtime.String"
    }, 
    {
      "type_key": "Array", 
      "data": [27]
    }, 
    {
      "type_key": "Map", 
      "keys": [
        "mtriple"
      ], 
      "data": [31]
    }, 
    {
      "type_key": "runtime.String", 
      "repr_str": "x86_64-unknown-linux-gnu"
    }, 
    {
      "type_key": "Map"
    }, 
    {
      "type_key": "Target", 
      "attrs": {
        "attrs": "30", 
        "features": "32", 
        "host": "0", 
        "keys": "29", 
        "kind": "24", 
        "tag": "28"
      }
    }, 
    {
      "type_key": "runtime.String"
    }
  ], 
  "b64ndarrays": [
    "P6G0lvBAXt0AAAAAAAAAAAEAAAAAAAAAAgAAAAIgAQADAAAAAAAAAAEAAAAAAAAADAAAAAAAAADOwDs/O7QtPwEPST8=", 
    "P6G0lvBAXt0AAAAAAAAAAAEAAAAAAAAAAQAAAAIgAQADAAAAAAAAAAwAAAAAAAAAzsA7Pzu0LT8BD0k/"
  ], 
  "attrs": {"tvm_version": "0.16.0"}
}