#[version = "0.0.5"]
def @main(%pzx : Tensor[(64), float32] /* ty=Tensor[(64), float32] span=from_string:3:90 */, %px1 : Tensor[(1), float32] /* ty=Tensor[(1), float32] span=from_string:9:26 */, %px2 : Tensor[(1), float32] /* ty=Tensor[(1), float32] span=from_string:9:32 */, %px3 : Tensor[(1), float32] /* ty=Tensor[(1), float32] span=from_string:9:38 */, %px4 : Tensor[(1), float32] /* ty=Tensor[(1), float32] span=from_string:9:44 */, %px5 : Tensor[(1), float32] /* ty=Tensor[(1), float32] span=from_string:14:28 */, %px6 : Tensor[(1), float32] /* ty=Tensor[(1), float32] span=from_string:14:34 */, %px7 : Tensor[(4, 1), float32] /* ty=Tensor[(4, 1), float32] span=from_string:15:23 */, hash="16ccf509933b1f4c", ) -> (Tensor[(64, 4, 1), float32],) {
  %21 = fn (%p03: Tensor[(64), float32] /* ty=Tensor[(64), float32] */, %p11: Tensor[(64), float32] /* ty=Tensor[(64), float32] */, %p2: Tensor[(64), float32] /* ty=Tensor[(64), float32] */, %p3: Tensor[(64), float32] /* ty=Tensor[(64), float32] */, %p4: Tensor[(1), float32] /* ty=Tensor[(1), float32] */, %p5: Tensor[(1), float32] /* ty=Tensor[(1), float32] */, Primitive=1, hash="5f6ca1c991ad8081") -> Tensor[(64, 1), float32] {
    %8 = add(%p03, %p11) /* ty=Tensor[(64), float32] */;
    %9 = multiply(%p2, %8) /* ty=Tensor[(64), float32] */;
    %10 = add(%9, %p3) /* ty=Tensor[(64), float32] */;
    %11 = tanh(%10) /* ty=Tensor[(64), float32] */;
    %12 = tan(%11) /* ty=Tensor[(64), float32] */;
    %13 = add(%p4, 1e-05f /* ty=float32 */) /* ty=Tensor[(1), float32] */;
    %14 = sqrt(%13) /* ty=Tensor[(1), float32] */;
    %15 = reshape(%12, newshape=[64, 1]) /* ty=Tensor[(64, 1), float32] */;
    %16 = divide(1f /* ty=float32 */, %14) /* ty=Tensor[(1), float32] */;
    %17 = negative(%p5) /* ty=Tensor[(1), float32] */;
    %18 = multiply(%15, %16) /* ty=Tensor[(64, 1), float32] */;
    %19 = multiply(%17, %16) /* ty=Tensor[(1), float32] */;
    %20 = add(%18, %19) /* ty=Tensor[(64, 1), float32] */;
    add(%20, %20) /* ty=Tensor[(64, 1), float32] */
  } /* ty=fn (Tensor[(64), float32], Tensor[(64), float32], Tensor[(64), float32], Tensor[(64), float32], Tensor[(1), float32], Tensor[(1), float32]) -> Tensor[(64, 1), float32] */;
  %28 = %21(meta[relay.Constant][0] /* ty=Tensor[(64), float32] span=from_string:3:17 */, %pzx, meta[relay.Constant][1] /* ty=Tensor[(64), float32] span=from_string:4:23 */, meta[relay.Constant][2] /* ty=Tensor[(64), float32] span=from_string:5:21 */, %px4, %px3) /* ty=Tensor[(64, 1), float32] */;
  %29 = fn (%p07: Tensor[(64, 1), float32] /* ty=Tensor[(64, 1), float32] */, Primitive=1, hash="c27dcf9f31d7b334") -> Tensor[(64, 1, 1), float32] {
    %27 = abs(%p07) /* ty=Tensor[(64, 1), float32] */;
    reshape(%27, newshape=[64, 1, 1]) /* ty=Tensor[(64, 1, 1), float32] */
  } /* ty=fn (Tensor[(64, 1), float32]) -> Tensor[(64, 1, 1), float32] */;
  %30 = %29(%28) /* ty=Tensor[(64, 1, 1), float32] */;
  %31 = fn (%p08: Tensor[(64, 1, 1), float32] /* ty=Tensor[(64, 1, 1), float32] */, Primitive=1, hash="d913b62ab82093a5") -> Tensor[(64, 1, 1), float32] {
    mean(%p08, axis=[2], keepdims=True) /* ty=Tensor[(64, 1, 1), float32] */
  } /* ty=fn (Tensor[(64, 1, 1), float32]) -> Tensor[(64, 1, 1), float32] */;
  %32 = %31(%30) /* ty=Tensor[(64, 1, 1), float32] */;
  %33 = fn (%p09: Tensor[(64, 1, 1), float32] /* ty=Tensor[(64, 1, 1), float32] */, %p14: Tensor[(64, 1, 1), float32] /* ty=Tensor[(64, 1, 1), float32] */, Primitive=1, hash="2a9d25db1ca1034e") -> Tensor[(64, 1, 1), float32] {
    variance(%p09, %p14, axis=[2], keepdims=True) /* ty=Tensor[(64, 1, 1), float32] */
  } /* ty=fn (Tensor[(64, 1, 1), float32], Tensor[(64, 1, 1), float32]) -> Tensor[(64, 1, 1), float32] */;
  %34 = %33(%30, %32) /* ty=Tensor[(64, 1, 1), float32] */;
  %35 = fn (%p06: Tensor[(64, 1, 1), float32] /* ty=Tensor[(64, 1, 1), float32] */, %p13: Tensor[(64, 1, 1), float32] /* ty=Tensor[(64, 1, 1), float32] */, %p21: Tensor[(64, 1, 1), float32] /* ty=Tensor[(64, 1, 1), float32] */, Primitive=1, hash="cabcc7090b30b1e9") -> Tensor[(64, 1), float32] {
    %23 = add(%p21, 1e-05f /* ty=float32 */) /* ty=Tensor[(64, 1, 1), float32] */;
    %24 = subtract(%p06, %p13) /* ty=Tensor[(64, 1, 1), float32] */;
    %25 = sqrt(%23) /* ty=Tensor[(64, 1, 1), float32] */;
    %26 = divide(%24, %25) /* ty=Tensor[(64, 1, 1), float32] */;
    reshape(%26, newshape=[64, 1]) /* ty=Tensor[(64, 1), float32] */
  } /* ty=fn (Tensor[(64, 1, 1), float32], Tensor[(64, 1, 1), float32], Tensor[(64, 1, 1), float32]) -> Tensor[(64, 1), float32] */;
  %36 = %35(%30, %32, %34) /* ty=Tensor[(64, 1), float32] */;
  %37 = fn (%p05: Tensor[(64, 1), float32] /* ty=Tensor[(64, 1), float32] */, %p12: Tensor[(4, 1), float32] /* ty=Tensor[(4, 1), float32] */, Primitive=1, hash="9d03c5415dc9a925") -> Tensor[(64, 4), float32] {
    %22 = nn.dense(%p05, %p12, units=4) /* ty=Tensor[(64, 4), float32] */;
    nn.relu(%22) /* ty=Tensor[(64, 4), float32] */
  } /* ty=fn (Tensor[(64, 1), float32], Tensor[(4, 1), float32]) -> Tensor[(64, 4), float32] */;
  %38 = %37(%36, %px7) /* ty=Tensor[(64, 4), float32] */;
  %39 = fn (%p04: Tensor[(64, 4), float32] /* ty=Tensor[(64, 4), float32] */, Primitive=1, hash="cd2795e6be7c7eda") -> Tensor[(64, 1), float32] {
    mean(%p04, axis=[1], keepdims=True) /* ty=Tensor[(64, 1), float32] */
  } /* ty=fn (Tensor[(64, 4), float32]) -> Tensor[(64, 1), float32] */;
  %40 = %39(%38) /* ty=Tensor[(64, 1), float32] */;
  %41 = fn (%p02: Tensor[(64, 1), float32] /* ty=Tensor[(64, 1), float32] */, %p1: Tensor[(64, 1), float32] /* ty=Tensor[(64, 1), float32] */, Primitive=1, hash="5d5849ccfb511a80") -> Tensor[(64, 1), float32] {
    %3 = nn.leaky_relu(%p02, alpha=0.083677f) /* ty=Tensor[(64, 1), float32] */;
    %4 = ceil(%3) /* ty=Tensor[(64, 1), float32] */;
    %5 = multiply(%4, %p1) /* ty=Tensor[(64, 1), float32] */;
    %6 = nn.leaky_relu(%5, alpha=0.55317f) /* ty=Tensor[(64, 1), float32] */;
    %7 = negative(%6) /* ty=Tensor[(64, 1), float32] */;
    reshape(%7, newshape=[64, 1]) /* ty=Tensor[(64, 1), float32] */
  } /* ty=fn (Tensor[(64, 1), float32], Tensor[(64, 1), float32]) -> Tensor[(64, 1), float32] */;
  %42 = %41(%28, %40) /* ty=Tensor[(64, 1), float32] */;
  %43 = fn (%p01: Tensor[(64, 1), float32] /* ty=Tensor[(64, 1), float32] */, Primitive=1, hash="9bad0aa6a76232c4") -> Tensor[(64, 1), float32] {
    nn.softmax(%p01, axis=1) /* ty=Tensor[(64, 1), float32] */
  } /* ty=fn (Tensor[(64, 1), float32]) -> Tensor[(64, 1), float32] */;
  %44 = %43(%42) /* ty=Tensor[(64, 1), float32] */;
  %45 = fn (%p0: Tensor[(64, 1), float32] /* ty=Tensor[(64, 1), float32] */, Primitive=1, hash="da5e02ec42de4e53") -> Tensor[(64, 4, 1), float32] {
    %0 = expand_dims(%p0, axis=1) /* ty=Tensor[(64, 1, 1), float32] */;
    %1 = tanh(%0) /* ty=Tensor[(64, 1, 1), float32] */;
    %2 = (%1, %1, %0, %0) /* ty=(Tensor[(64, 1, 1), float32], Tensor[(64, 1, 1), float32], Tensor[(64, 1, 1), float32], Tensor[(64, 1, 1), float32]) span=from_string:27:21 */;
    concatenate(%2, axis=1) /* ty=Tensor[(64, 4, 1), float32] */
  } /* ty=fn (Tensor[(64, 1), float32]) -> Tensor[(64, 4, 1), float32] */;
  %46 = %45(%44) /* ty=Tensor[(64, 4, 1), float32] */;
  (%46,) /* ty=(Tensor[(64, 4, 1), float32],) span=from_string:3:3 */
}

#[metadata]
{
  "root": 1, 
  "nodes": [
    {
      "type_key": ""
    }, 
    {
      "type_key": "Map", 
      "keys": [
        "relay.Constant", 
        "VirtualDevice"
      ], 
      "data": [2, 21]
    }, 
    {
      "type_key": "Array", 
      "data": [3, 11, 16]
    }, 
    {
      "type_key": "relay.Constant", 
      "attrs": {
        "_checked_type_": "8", 
        "data": "0", 
        "span": "6", 
        "virtual_device_": "4"
      }
    }, 
    {
      "type_key": "VirtualDevice", 
      "attrs": {
        "device_type_int": "-1", 
        "memory_scope": "5", 
        "target": "0", 
        "virtual_device_id": "-1"
      }
    }, 
    {
      "type_key": "runtime.String"
    }, 
    {
      "type_key": "Span", 
      "attrs": {
        "column": "17", 
        "end_column": "35", 
        "end_line": "3", 
        "line": "3", 
        "source_name": "7"
      }
    }, 
    {
      "type_key": "SourceName", 
      "repr_str": "from_string"
    }, 
    {
      "type_key": "relay.TensorType", 
      "attrs": {
        "dtype": "float32", 
        "shape": "9", 
        "span": "0"
      }
    }, 
    {
      "type_key": "Array", 
      "data": [10]
    }, 
    {
      "type_key": "IntImm", 
      "attrs": {
        "dtype": "int32", 
        "span": "0", 
        "value": "64"
      }
    }, 
    {
      "type_key": "relay.Constant", 
      "attrs": {
        "_checked_type_": "13", 
        "data": "1", 
        "span": "12", 
        "virtual_device_": "4"
      }
    }, 
    {
      "type_key": "Span", 
      "attrs": {
        "column": "23", 
        "end_column": "41", 
        "end_line": "4", 
        "line": "4", 
        "source_name": "7"
      }
    }, 
    {
      "type_key": "relay.TensorType", 
      "attrs": {
        "dtype": "float32", 
        "shape": "14", 
        "span": "0"
      }
    }, 
    {
      "type_key": "Array", 
      "data": [15]
    }, 
    {
      "type_key": "IntImm", 
      "attrs": {
        "dtype": "int32", 
        "span": "0", 
        "value": "64"
      }
    }, 
    {
      "type_key": "relay.Constant", 
      "attrs": {
        "_checked_type_": "18", 
        "data": "2", 
        "span": "17", 
        "virtual_device_": "4"
      }
    }, 
    {
      "type_key": "Span", 
      "attrs": {
        "column": "21", 
        "end_column": "39", 
        "end_line": "5", 
        "line": "5", 
        "source_name": "7"
      }
    }, 
    {
      "type_key": "relay.TensorType", 
      "attrs": {
        "dtype": "float32", 
        "shape": "19", 
        "span": "0"
      }
    }, 
    {
      "type_key": "Array", 
      "data": [20]
    }, 
    {
      "type_key": "IntImm", 
      "attrs": {
        "dtype": "int32", 
        "span": "0", 
        "value": "64"
      }
    }, 
    {
      "type_key": "Array", 
      "data": [22]
    }, 
    {
      "type_key": "VirtualDevice", 
      "attrs": {
        "device_type_int": "1", 
        "memory_scope": "34", 
        "target": "23", 
        "virtual_device_id": "0"
      }
    }, 
    {
      "type_key": "Target", 
      "attrs": {
        "attrs": "30", 
        "features": "32", 
        "host": "33", 
        "keys": "29", 
        "kind": "24", 
        "tag": "28"
      }
    }, 
    {
      "type_key": "TargetKind", 
      "attrs": {
        "default_device_type": "1", 
        "default_keys": "26", 
        "name": "25"
      }
    }, 
    {
      "type_key": "runtime.String", 
      "repr_str": "llvm"
    }, 
    {
      "type_key": "Array", 
      "data": [27]
    }, 
    {
      "type_key": "runtime.String", 
      "repr_str": "cpu"
    }, 
    {
      "type_key": "runtime.String"
    }, 
    {
      "type_key": "Array", 
      "data": [27]
    }, 
    {
      "type_key": "Map", 
      "keys": [
        "mtriple"
      ], 
      "data": [31]
    }, 
    {
      "type_key": "runtime.String", 
      "repr_str": "x86_64-unknown-linux-gnu"
    }, 
    {
      "type_key": "Map"
    }, 
    {
      "type_key": "Target", 
      "attrs": {
        "attrs": "30", 
        "features": "32", 
        "host": "0", 
        "keys": "29", 
        "kind": "24", 
        "tag": "28"
      }
    }, 
    {
      "type_key": "runtime.String"
    }
  ], 
  "b64ndarrays": [
    "…", 
    "…", 
    "…"
  ], 
  "attrs": {"tvm_version": "0.16.0"}
}