#[version = "0.0.5"]
def @main(%x0 : Tensor[(20, 15), float32] /* ty=Tensor[(20, 15), float32] span=from_string:3:16 */, %x1 : Tensor[(1), float32] /* ty=Tensor[(1), float32] span=from_string:7:21 */, hash="bf7565536d5dee41", ) -> (Tensor[(20, 1), float32],) {
  %4 = fn (%p02: Tensor[(20, 15), float32] /* ty=Tensor[(20, 15), float32] */, Primitive=1, relay.reshape_only=1, hash="af2ba60967857e78") -> Tensor[(20, 15, 1), float32] {
    reshape(%p02, newshape=[20, 15, 1]) /* ty=Tensor[(20, 15, 1), float32] */
  } /* ty=fn (Tensor[(20, 15), float32]) -> Tensor[(20, 15, 1), float32] */;
  %5 = %4(%x0) /* ty=Tensor[(20, 15, 1), float32] */;
  %6 = fn (%p01: Tensor[(20, 15, 1), float32] /* ty=Tensor[(20, 15, 1), float32] */, Primitive=1, hash="24d7a9a5449019c1") -> Tensor[(20, 1), float32] {
    sum(%p01, axis=[1]) /* ty=Tensor[(20, 1), float32] */
  } /* ty=fn (Tensor[(20, 15, 1), float32]) -> Tensor[(20, 1), float32] */;
  %7 = %6(%5) /* ty=Tensor[(20, 1), float32] */;
  %8 = fn (%p0: Tensor[(20, 1), float32] /* ty=Tensor[(20, 1), float32] */, %p1: Tensor[(1), float32] /* ty=Tensor[(1), float32] */, Primitive=1, hash="c8818aa91b6f56ba") -> Tensor[(20, 1), float32] {
    %0 = abs(%p0) /* ty=Tensor[(20, 1), float32] */;
    %1 = nn.prelu(%0, %p1) /* ty=Tensor[(20, 1), float32] */;
    %2 = divide(%1, %1) /* ty=Tensor[(20, 1), float32] */;
    %3 = maximum(%2, %0) /* ty=Tensor[(20, 1), float32] */;
    tanh(%3) /* ty=Tensor[(20, 1), float32] */
  } /* ty=fn (Tensor[(20, 1), float32], Tensor[(1), float32]) -> Tensor[(20, 1), float32] */;
  %9 = %8(%7, %x1) /* ty=Tensor[(20, 1), float32] */;
  (%9,) /* ty=(Tensor[(20, 1), float32],) span=from_string:3:3 */
}

#[metadata]
{
  "root": 1, 
  "nodes": [
    {
      "type_key": ""
    }, 
    {
      "type_key": "Map", 
      "keys": [
        "VirtualDevice"
      ], 
      "data": [2]
    }, 
    {
      "type_key": "Array", 
      "data": [3]
    }, 
    {
      "type_key": "VirtualDevice", 
      "attrs": {
        "device_type_int": "1", 
        "memory_scope": "15", 
        "target": "4", 
        "virtual_device_id": "0"
      }
    }, 
    {
      "type_key": "Target", 
      "attrs": {
        "attrs": "11", 
        "features": "13", 
        "host": "14", 
        "keys": "10", 
        "kind": "5", 
        "tag": "9"
      }
    }, 
    {
      "type_key": "TargetKind", 
      "attrs": {
        "default_device_type": "1", 
        "default_keys": "7", 
        "name": "6"
      }
    }, 
    {
      "type_key": "runtime.String", 
      "repr_str": "llvm"
    }, 
    {
      "type_key": "Array", 
      "data": [8]
    }, 
    {
      "type_key": "runtime.String", 
      "repr_str": "cpu"
    }, 
    {
      "type_key": "runtime.String"
    }, 
    {
      "type_key": "Array", 
      "data": [8]
    }, 
    {
      "type_key": "Map", 
      "keys": [
        "mtriple"
      ], 
      "data": [12]
    }, 
    {
      "type_key": "runtime.String", 
      "repr_str": "x86_64-unknown-linux-gnu"
    }, 
    {
      "type_key": "Map"
    }, 
    {
      "type_key": "Target", 
      "attrs": {
        "attrs": "11", 
        "features": "13", 
        "host": "0", 
        "keys": "10", 
        "kind": "5", 
        "tag": "9"
      }
    }, 
    {
      "type_key": "runtime.String"
    }
  ], 
  "b64ndarrays": [], 
  "attrs": {"tvm_version": "0.16.0"}
}