#[version = "0.0.5"]
def @main(%pzx : Tensor[(64), float32] /* ty=Tensor[(64), float32] span=from_string:3:90 */, %px1 : Tensor[(1), float32] /* ty=Tensor[(1), float32] span=from_string:27:26 */, %px2 : Tensor[(10, 1), float32] /* ty=Tensor[(10, 1), float32] span=from_string:29:23 */, hash="425403b45d53f82e", ) -> (Tensor[(64, 12), float32], Tensor[(64, 1, 1), float32]) {
  %21 = fn (%p03: Tensor[(64), float32] /* ty=Tensor[(64), float32] */, %p11: Tensor[(64), float32] /* ty=Tensor[(64), float32] */, %p21: Tensor[(64), float32] /* ty=Tensor[(64), float32] */, %p31: Tensor[(64), float32] /* ty=Tensor[(64), float32] */, Primitive=1, hash="a7e3433707180a19") -> Tensor[(64), float32] {
    %13 = add(%p03, %p11) /* ty=Tensor[(64), float32] */;
    %14 = multiply(%p21, %13) /* ty=Tensor[(64), float32] */;
    %15 = add(%14, %p31) /* ty=Tensor[(64), float32] */;
    %16 = nn.leaky_relu(%15, alpha=0.989105f) /* ty=Tensor[(64), float32] */;
    %17 = sigmoid(%16) /* ty=Tensor[(64), float32] */;
    %18 = cos(%17) /* ty=Tensor[(64), float32] */;
    %19 = tan(%18) /* ty=Tensor[(64), float32] */;
    %20 = negative(%19) /* ty=Tensor[(64), float32] */;
    trunc(%20) /* ty=Tensor[(64), float32] */
  } /* ty=fn (Tensor[(64), float32], Tensor[(64), float32], Tensor[(64), float32], Tensor[(64), float32]) -> Tensor[(64), float32] */;
  %22 = %21(meta[relay.Constant][0] /* ty=Tensor[(64), float32] span=from_string:3:17 */, %pzx, meta[relay.Constant][1] /* ty=Tensor[(64), float32] span=from_string:4:23 */, meta[relay.Constant][2] /* ty=Tensor[(64), float32] span=from_string:5:21 */) /* ty=Tensor[(64), float32] */;
  %23 = fn (%p02: Tensor[(64), float32] /* ty=Tensor[(64), float32] */, Primitive=1, hash="6b90a0eb6d357875") -> Tensor[(64, 1), float32] {
    %10 = reshape(%p02, newshape=[64, 1]) /* ty=Tensor[(64, 1), float32] */;
    %11 = abs(%10) /* ty=Tensor[(64, 1), float32] */;
    %12 = abs(%11) /* ty=Tensor[(64, 1), float32] */;
    sin(%12) /* ty=Tensor[(64, 1), float32] */
  } /* ty=fn (Tensor[(64), float32]) -> Tensor[(64, 1), float32] */;
  %28 = %23(%22) /* ty=Tensor[(64, 1), float32] */;
  %29 = fn (%p06: Tensor[(64, 1), float32] /* ty=Tensor[(64, 1), float32] */, Primitive=1, hash="2e5627b01dd1d9c3") -> Tensor[(64, 1), float32] {
    %27 = fast_exp(%p06) /* ty=Tensor[(64, 1), float32] */;
    sum(%27, axis=[1], keepdims=True) /* ty=Tensor[(64, 1), float32] */
  } /* ty=fn (Tensor[(64, 1), float32]) -> Tensor[(64, 1), float32] */;
  %30 = %29(%28) /* ty=Tensor[(64, 1), float32] */;
  %31 = fn (%p05: Tensor[(64, 1), float32] /* ty=Tensor[(64, 1), float32] */, Primitive=1, hash="911834ed00b5f0ab") -> Tensor[(64, 1), float32] {
    %26 = sigmoid(%p05) /* ty=Tensor[(64, 1), float32] */;
    nn.batch_flatten(%26) /* ty=Tensor[(64, 1), float32] */
  } /* ty=fn (Tensor[(64, 1), float32]) -> Tensor[(64, 1), float32] */;
  %32 = %31(%30) /* ty=Tensor[(64, 1), float32] */;
  %33 = fn (%p04: Tensor[(64, 1), float32] /* ty=Tensor[(64, 1), float32] */, %p12: Tensor[(64, 1), float32] /* ty=Tensor[(64, 1), float32] */, Primitive=1, hash="7fbcb982d0b1e953") -> Tensor[(64, 1), float32] {
    %24 = sigmoid(%p04) /* ty=Tensor[(64, 1), float32] */;
    %25 = sin(%24) /* ty=Tensor[(64, 1), float32] */;
    subtract(%25, %p12) /* ty=Tensor[(64, 1), float32] */
  } /* ty=fn (Tensor[(64, 1), float32], Tensor[(64, 1), float32]) -> Tensor[(64, 1), float32] */;
  %34 = fn (%p08: Tensor[(10, 1), float32] /* ty=Tensor[(10, 1), float32] */, Primitive=1, hash="23d21a63b024066d", src_layout="NC", dst_layout="NC5n") -> Tensor[(2, 1, 5), float32] {
    layout_transform(%p08, src_layout="NC", dst_layout="NC5n") /* ty=Tensor[(2, 1, 5), float32] */
  } /* ty=fn (Tensor[(10, 1), float32]) -> Tensor[(2, 1, 5), float32] */;
  %35 = %33(%32, %30) /* ty=Tensor[(64, 1), float32] */;
  %36 = %34(%px2) /* ty=Tensor[(2, 1, 5), float32] */;
  %37 = fn (%p07: Tensor[(64, 1), float32] /* ty=Tensor[(64, 1), float32] */, %p13: Tensor[(2, 1, 5), float32] /* ty=Tensor[(2, 1, 5), float32] */, Primitive=1, hash="b43b2ba8e9cadcfc", weight_layout="NC5n") -> Tensor[(64, 10), float32] {
    nn.contrib_dense_pack(%p07, %p13, meta[relay.attrs.DensePackAttrs][0]) /* ty=Tensor[(64, 10), float32] */
  } /* ty=fn (Tensor[(64, 1), float32], Tensor[(2, 1, 5), float32]) -> Tensor[(64, 10), float32] */;
  %38 = %37(%35, %36) /* ty=Tensor[(64, 10), float32] */;
  %39 = fn (%p01: Tensor[(64, 1), float32] /* ty=Tensor[(64, 1), float32] */, %p1: Tensor[(64, 1), float32] /* ty=Tensor[(64, 1), float32] */, %p2: Tensor[(1), float32] /* ty=Tensor[(1), float32] */, %p3: Tensor[(64, 1), float32] /* ty=Tensor[(64, 1), float32] */, %p4: Tensor[(64, 10), float32] /* ty=Tensor[(64, 10), float32] */, Primitive=1, hash="830e1790ff717a3e") -> Tensor[(64, 12), float32] {
    %0 = nn.relu(%p01) /* ty=Tensor[(64, 1), float32] */;
    %1 = round(%0) /* ty=Tensor[(64, 1), float32] */;
    %2 = split(%1, indices_or_sections=[], axis=1) /* ty=(Tensor[(64, 1), float32],) */;
    %3 = abs(%p1) /* ty=Tensor[(64, 1), float32] */;
    %4 = add(%3, %p2) /* ty=Tensor[(64, 1), float32] */;
    %5 = subtract(%4, %p3) /* ty=Tensor[(64, 1), float32] */;
    %6 = %2.0 /* ty=Tensor[(64, 1), float32] */;
    %7 = round(%5) /* ty=Tensor[(64, 1), float32] */;
    %8 = (%p4, %6, %7) /* ty=(Tensor[(64, 10), float32], Tensor[(64, 1), float32], Tensor[(64, 1), float32]) span=from_string:33:21 */;
    %9 = concatenate(%8, axis=1) /* ty=Tensor[(64, 12), float32] */;
    sin(%9) /* ty=Tensor[(64, 12), float32] */
  } /* ty=fn (Tensor[(64, 1), float32], Tensor[(64, 1), float32], Tensor[(1), float32], Tensor[(64, 1), float32], Tensor[(64, 10), float32]) -> Tensor[(64, 12), float32] */;
  %40 = %39(%28, %35, %px1, %32, %38) /* ty=Tensor[(64, 12), float32] */;
  %41 = fn (%p0: Tensor[(64, 12), float32] /* ty=Tensor[(64, 12), float32] */, Primitive=1, hash="4e11a3850966a3dc") -> Tensor[(64, 12), float32] {
    nn.fast_softmax(%p0, axis=1) /* ty=Tensor[(64, 12), float32] */
  } /* ty=fn (Tensor[(64, 12), float32]) -> Tensor[(64, 12), float32] */;
  %43 = fn (%p09: Tensor[(64), float32] /* ty=Tensor[(64), float32] */, Primitive=1, hash="6c8c55595e73a8ea") -> Tensor[(64, 1, 1), float32] {
    %42 = nn.leaky_relu(%p09, alpha=0.0954231f) /* ty=Tensor[(64), float32] */;
    reshape(%42, newshape=[64, 1, 1]) /* ty=Tensor[(64, 1, 1), float32] */
  } /* ty=fn (Tensor[(64), float32]) -> Tensor[(64, 1, 1), float32] */;
  %44 = %41(%40) /* ty=Tensor[(64, 12), float32] */;
  %45 = %43(%22) /* ty=Tensor[(64, 1, 1), float32] */;
  (%44, %45) /* ty=(Tensor[(64, 12), float32], Tensor[(64, 1, 1), float32]) span=from_string:3:3 */
}

#[metadata]
{
  "root": 1, 
  "nodes": [
    {
      "type_key": ""
    }, 
    {
      "type_key": "Map", 
      "keys": [
        "relay.attrs.DensePackAttrs", 
        "relay.Constant", 
        "VirtualDevice"
      ], 
      "data": [2, 5, 24]
    }, 
    {
      "type_key": "Array", 
      "data": [3]
    }, 
    {
      "type_key": "relay.attrs.DensePackAttrs", 
      "attrs": {
        "out_dtype": "float32", 
        "units": "0", 
        "weight_layout": "4"
      }
    }, 
    {
      "type_key": "runtime.String", 
      "repr_str": "NC5n"
    }, 
    {
      "type_key": "Array", 
      "data": [6, 14, 19]
    }, 
    {
      "type_key": "relay.Constant", 
      "attrs": {
        "_checked_type_": "11", 
        "data": "0", 
        "span": "9", 
        "virtual_device_": "7"
      }
    }, 
    {
      "type_key": "VirtualDevice", 
      "attrs": {
        "device_type_int": "-1", 
        "memory_scope": "8", 
        "target": "0", 
        "virtual_device_id": "-1"
      }
    }, 
    {
      "type_key": "runtime.String"
    }, 
    {
      "type_key": "Span", 
      "attrs": {
        "column": "17", 
        "end_column": "35", 
        "end_line": "3", 
        "line": "3", 
        "source_name": "10"
      }
    }, 
    {
      "type_key": "SourceName", 
      "repr_str": "from_string"
    }, 
    {
      "type_key": "relay.TensorType", 
      "attrs": {
        "dtype": "float32", 
        "shape": "12", 
        "span": "0"
      }
    }, 
    {
      "type_key": "Array", 
      "data": [13]
    }, 
    {
      "type_key": "IntImm", 
      "attrs": {
        "dtype": "int32", 
        "span": "0", 
        "value": "64"
      }
    }, 
    {
      "type_key": "relay.Constant", 
      "attrs": {
        "_checked_type_": "16", 
        "data": "1", 
        "span": "15", 
        "virtual_device_": "7"
      }
    }, 
    {
      "type_key": "Span", 
      "attrs": {
        "column": "23", 
        "end_column": "41", 
        "end_line": "4", 
        "line": "4", 
        "source_name": "10"
      }
    }, 
    {
      "type_key": "relay.TensorType", 
      "attrs": {
        "dtype": "float32", 
        "shape": "17", 
        "span": "0"
      }
    }, 
    {
      "type_key": "Array", 
      "data": [18]
    }, 
    {
      "type_key": "IntImm", 
      "attrs": {
        "dtype": "int32", 
        "span": "0", 
        "value": "64"
      }
    }, 
    {
      "type_key": "relay.Constant", 
      "attrs": {
        "_checked_type_": "21", 
        "data": "2", 
        "span": "20", 
        "virtual_device_": "7"
      }
    }, 
    {
      "type_key": "Span", 
      "attrs": {
        "column": "21", 
        "end_column": "39", 
        "end_line": "5", 
        "line": "5", 
        "source_name": "10"
      }
    }, 
    {
      "type_key": "relay.TensorType", 
      "attrs": {
        "dtype": "float32", 
        "shape": "22", 
        "span": "0"
      }
    }, 
    {
      "type_key": "Array", 
      "data": [23]
    }, 
    {
      "type_key": "IntImm", 
      "attrs": {
        "dtype": "int32", 
        "span": "0", 
        "value": "64"
      }
    }, 
    {
      "type_key": "Array", 
      "data": [25]
    }, 
    {
      "type_key": "VirtualDevice", 
      "attrs": {
        "device_type_int": "1", 
        "memory_scope": "37", 
        "target": "26", 
        "virtual_device_id": "0"
      }
    }, 
    {
      "type_key": "Target", 
      "attrs": {
        "attrs": "33", 
        "features": "35", 
        "host": "36", 
        "keys": "32", 
        "kind": "27", 
        "tag": "31"
      }
    }, 
    {
      "type_key": "TargetKind", 
      "attrs": {
        "default_device_type": "1", 
        "default_keys": "29", 
        "name": "28"
      }
    }, 
    {
      "type_key": "runtime.String", 
      "repr_str": "llvm"
    }, 
    {
      "type_key": "Array", 
      "data": [30]
    }, 
    {
      "type_key": "runtime.String", 
      "repr_str": "cpu"
    }, 
    {
      "type_key": "runtime.String"
    }, 
    {
      "type_key": "Array", 
      "data": [30]
    }, 
    {
      "type_key": "Map", 
      "keys": [
        "mtriple"
      ], 
      "data": [34]
    }, 
    {
      "type_key": "runtime.String", 
      "repr_str": "x86_64-unknown-linux-gnu"
    }, 
    {
      "type_key": "Map"
    }, 
    {
      "type_key": "Target", 
      "attrs": {
        "attrs": "33", 
        "features": "35", 
        "host": "0", 
        "keys": "32", 
        "kind": "27", 
        "tag": "31"
      }
    }, 
    {
      "type_key": "runtime.String"
    }
  ], 
  "b64ndarrays": [
    "…", 
    "…", 
    "…"
  ], 
  "attrs": {"tvm_version": "0.16.0"}
}