#[version = "0.0.5"]
def @main(%pzx : Tensor[(64), float32] /* ty=Tensor[(64), float32] span=from_string:3:90 */, %px1 : Tensor[(1), float32] /* ty=Tensor[(1), float32] span=from_string:27:26 */, %px2 : Tensor[(10, 1), float32] /* ty=Tensor[(10, 1), float32] span=from_string:29:23 */, hash="3cb6295e1ac18945", ) -> (Tensor[(64, 12), float32], Tensor[(64, 1, 1), float32]) {
  %21 = fn (%p03: Tensor[(64), float32] /* ty=Tensor[(64), float32] */, %p11: Tensor[(64), float32] /* ty=Tensor[(64), float32] */, %p21: Tensor[(64), float32] /* ty=Tensor[(64), float32] */, %p31: Tensor[(64), float32] /* ty=Tensor[(64), float32] */, Primitive=1, hash="a7e3433707180a19") -> Tensor[(64), float32] {
    %13 = add(%p03, %p11) /* ty=Tensor[(64), float32] */;
    %14 = multiply(%p21, %13) /* ty=Tensor[(64), float32] */;
    %15 = add(%14, %p31) /* ty=Tensor[(64), float32] */;
    %16 = nn.leaky_relu(%15, alpha=0.989105f) /* ty=Tensor[(64), float32] */;
    %17 = sigmoid(%16) /* ty=Tensor[(64), float32] */;
    %18 = cos(%17) /* ty=Tensor[(64), float32] */;
    %19 = tan(%18) /* ty=Tensor[(64), float32] */;
    %20 = negative(%19) /* ty=Tensor[(64), float32] */;
    trunc(%20) /* ty=Tensor[(64), float32] */
  } /* ty=fn (Tensor[(64), float32], Tensor[(64), float32], Tensor[(64), float32], Tensor[(64), float32]) -> Tensor[(64), float32] */;
  %22 = %21(meta[relay.Constant][0] /* ty=Tensor[(64), float32] span=from_string:3:17 */, %pzx, meta[relay.Constant][1] /* ty=Tensor[(64), float32] span=from_string:4:23 */, meta[relay.Constant][2] /* ty=Tensor[(64), float32] span=from_string:5:21 */) /* ty=Tensor[(64), float32] */;
  %23 = fn (%p02: Tensor[(64), float32] /* ty=Tensor[(64), float32] */, Primitive=1, hash="6b90a0eb6d357875") -> Tensor[(64, 1), float32] {
    %10 = reshape(%p02, newshape=[64, 1]) /* ty=Tensor[(64, 1), float32] */;
    %11 = abs(%10) /* ty=Tensor[(64, 1), float32] */;
    %12 = abs(%11) /* ty=Tensor[(64, 1), float32] */;
    sin(%12) /* ty=Tensor[(64, 1), float32] */
  } /* ty=fn (Tensor[(64), float32]) -> Tensor[(64, 1), float32] */;
  %28 = %23(%22) /* ty=Tensor[(64, 1), float32] */;
  %29 = fn (%p06: Tensor[(64, 1), float32] /* ty=Tensor[(64, 1), float32] */, Primitive=1, hash="e958d650fe2530c5") -> Tensor[(64, 1), float32] {
    %27 = exp(%p06) /* ty=Tensor[(64, 1), float32] */;
    sum(%27, axis=[1], keepdims=True) /* ty=Tensor[(64, 1), float32] */
  } /* ty=fn (Tensor[(64, 1), float32]) -> Tensor[(64, 1), float32] */;
  %30 = %29(%28) /* ty=Tensor[(64, 1), float32] */;
  %31 = fn (%p05: Tensor[(64, 1), float32] /* ty=Tensor[(64, 1), float32] */, Primitive=1, hash="911834ed00b5f0ab") -> Tensor[(64, 1), float32] {
    %26 = sigmoid(%p05) /* ty=Tensor[(64, 1), float32] */;
    nn.batch_flatten(%26) /* ty=Tensor[(64, 1), float32] */
  } /* ty=fn (Tensor[(64, 1), float32]) -> Tensor[(64, 1), float32] */;
  %32 = %31(%30) /* ty=Tensor[(64, 1), float32] */;
  %33 = fn (%p04: Tensor[(64, 1), float32] /* ty=Tensor[(64, 1), float32] */, %p12: Tensor[(64, 1), float32] /* ty=Tensor[(64, 1), float32] */, Primitive=1, hash="7fbcb982d0b1e953") -> Tensor[(64, 1), float32] {
    %24 = sigmoid(%p04) /* ty=Tensor[(64, 1), float32] */;
    %25 = sin(%24) /* ty=Tensor[(64, 1), float32] */;
    subtract(%25, %p12) /* ty=Tensor[(64, 1), float32] */
  } /* ty=fn (Tensor[(64, 1), float32], Tensor[(64, 1), float32]) -> Tensor[(64, 1), float32] */;
  %34 = %33(%32, %30) /* ty=Tensor[(64, 1), float32] */;
  %35 = fn (%p07: Tensor[(64, 1), float32] /* ty=Tensor[(64, 1), float32] */, %p13: Tensor[(10, 1), float32] /* ty=Tensor[(10, 1), float32] */, Primitive=1, hash="b487230595e19795") -> Tensor[(64, 10), float32] {
    nn.dense(%p07, %p13, units=10) /* ty=Tensor[(64, 10), float32] */
  } /* ty=fn (Tensor[(64, 1), float32], Tensor[(10, 1), float32]) -> Tensor[(64, 10), float32] */;
  %36 = %35(%34, %px2) /* ty=Tensor[(64, 10), float32] */;
  %37 = fn (%p01: Tensor[(64, 1), float32] /* ty=Tensor[(64, 1), float32] */, %p1: Tensor[(64, 1), float32] /* ty=Tensor[(64, 1), float32] */, %p2: Tensor[(1), float32] /* ty=Tensor[(1), float32] */, %p3: Tensor[(64, 1), float32] /* ty=Tensor[(64, 1), float32] */, %p4: Tensor[(64, 10), float32] /* ty=Tensor[(64, 10), float32] */, Primitive=1, hash="dfed75616b83e6ac") -> Tensor[(64, 12), float32] {
    %0 = nn.relu(%p01) /* ty=Tensor[(64, 1), float32] */;
    %1 = round(%0) /* ty=Tensor[(64, 1), float32] */;
    %2 = split(%1, indices_or_sections=[], axis=1) /* ty=(Tensor[(64, 1), float32],) */;
    %3 = abs(%p1) /* ty=Tensor[(64, 1), float32] */;
    %4 = nn.bias_add(%3, %p2) /* ty=Tensor[(64, 1), float32] */;
    %5 = subtract(%4, %p3) /* ty=Tensor[(64, 1), float32] */;
    %6 = %2.0 /* ty=Tensor[(64, 1), float32] */;
    %7 = round(%5) /* ty=Tensor[(64, 1), float32] */;
    %8 = (%p4, %6, %7) /* ty=(Tensor[(64, 10), float32], Tensor[(64, 1), float32], Tensor[(64, 1), float32]) span=from_string:33:21 */;
    %9 = concatenate(%8, axis=1) /* ty=Tensor[(64, 12), float32] */;
    sin(%9) /* ty=Tensor[(64, 12), float32] */
  } /* ty=fn (Tensor[(64, 1), float32], Tensor[(64, 1), float32], Tensor[(1), float32], Tensor[(64, 1), float32], Tensor[(64, 10), float32]) -> Tensor[(64, 12), float32] */;
  %38 = %37(%28, %34, %px1, %32, %36) /* ty=Tensor[(64, 12), float32] */;
  %39 = fn (%p0: Tensor[(64, 12), float32] /* ty=Tensor[(64, 12), float32] */, Primitive=1, hash="acb22f0f07da338b") -> Tensor[(64, 12), float32] {
    nn.softmax(%p0, axis=1) /* ty=Tensor[(64, 12), float32] */
  } /* ty=fn (Tensor[(64, 12), float32]) -> Tensor[(64, 12), float32] */;
  %41 = fn (%p08: Tensor[(64), float32] /* ty=Tensor[(64), float32] */, Primitive=1, hash="6c8c55595e73a8ea") -> Tensor[(64, 1, 1), float32] {
    %40 = nn.leaky_relu(%p08, alpha=0.0954231f) /* ty=Tensor[(64), float32] */;
    reshape(%40, newshape=[64, 1, 1]) /* ty=Tensor[(64, 1, 1), float32] */
  } /* ty=fn (Tensor[(64), float32]) -> Tensor[(64, 1, 1), float32] */;
  %42 = %39(%38) /* ty=Tensor[(64, 12), float32] */;
  %43 = %41(%22) /* ty=Tensor[(64, 1, 1), float32] */;
  (%42, %43) /* ty=(Tensor[(64, 12), float32], Tensor[(64, 1, 1), float32]) span=from_string:3:3 */
}

#[metadata]
{
  "root": 1, 
  "nodes": [
    {
      "type_key": ""
    }, 
    {
      "type_key": "Map", 
      "keys": [
        "relay.Constant", 
        "VirtualDevice"
      ], 
      "data": [2, 21]
    }, 
    {
      "type_key": "Array", 
      "data": [3, 11, 16]
    }, 
    {
      "type_key": "relay.Constant", 
      "attrs": {
        "_checked_type_": "8", 
        "data": "0", 
        "span": "6", 
        "virtual_device_": "4"
      }
    }, 
    {
      "type_key": "VirtualDevice", 
      "attrs": {
        "device_type_int": "-1", 
        "memory_scope": "5", 
        "target": "0", 
        "virtual_device_id": "-1"
      }
    }, 
    {
      "type_key": "runtime.String"
    }, 
    {
      "type_key": "Span", 
      "attrs": {
        "column": "17", 
        "end_column": "35", 
        "end_line": "3", 
        "line": "3", 
        "source_name": "7"
      }
    }, 
    {
      "type_key": "SourceName", 
      "repr_str": "from_string"
    }, 
    {
      "type_key": "relay.TensorType", 
      "attrs": {
        "dtype": "float32", 
        "shape": "9", 
        "span": "0"
      }
    }, 
    {
      "type_key": "Array", 
      "data": [10]
    }, 
    {
      "type_key": "IntImm", 
      "attrs": {
        "dtype": "int32", 
        "span": "0", 
        "value": "64"
      }
    }, 
    {
      "type_key": "relay.Constant", 
      "attrs": {
        "_checked_type_": "13", 
        "data": "1", 
        "span": "12", 
        "virtual_device_": "4"
      }
    }, 
    {
      "type_key": "Span", 
      "attrs": {
        "column": "23", 
        "end_column": "41", 
        "end_line": "4", 
        "line": "4", 
        "source_name": "7"
      }
    }, 
    {
      "type_key": "relay.TensorType", 
      "attrs": {
        "dtype": "float32", 
        "shape": "14", 
        "span": "0"
      }
    }, 
    {
      "type_key": "Array", 
      "data": [15]
    }, 
    {
      "type_key": "IntImm", 
      "attrs": {
        "dtype": "int32", 
        "span": "0", 
        "value": "64"
      }
    }, 
    {
      "type_key": "relay.Constant", 
      "attrs": {
        "_checked_type_": "18", 
        "data": "2", 
        "span": "17", 
        "virtual_device_": "4"
      }
    }, 
    {
      "type_key": "Span", 
      "attrs": {
        "column": "21", 
        "end_column": "39", 
        "end_line": "5", 
        "line": "5", 
        "source_name": "7"
      }
    }, 
    {
      "type_key": "relay.TensorType", 
      "attrs": {
        "dtype": "float32", 
        "shape": "19", 
        "span": "0"
      }
    }, 
    {
      "type_key": "Array", 
      "data": [20]
    }, 
    {
      "type_key": "IntImm", 
      "attrs": {
        "dtype": "int32", 
        "span": "0", 
        "value": "64"
      }
    }, 
    {
      "type_key": "Array", 
      "data": [22]
    }, 
    {
      "type_key": "VirtualDevice", 
      "attrs": {
        "device_type_int": "1", 
        "memory_scope": "34", 
        "target": "23", 
        "virtual_device_id": "0"
      }
    }, 
    {
      "type_key": "Target", 
      "attrs": {
        "attrs": "30", 
        "features": "32", 
        "host": "33", 
        "keys": "29", 
        "kind": "24", 
        "tag": "28"
      }
    }, 
    {
      "type_key": "TargetKind", 
      "attrs": {
        "default_device_type": "1", 
        "default_keys": "26", 
        "name": "25"
      }
    }, 
    {
      "type_key": "runtime.String", 
      "repr_str": "llvm"
    }, 
    {
      "type_key": "Array", 
      "data": [27]
    }, 
    {
      "type_key": "runtime.String", 
      "repr_str": "cpu"
    }, 
    {
      "type_key": "runtime.String"
    }, 
    {
      "type_key": "Array", 
      "data": [27]
    }, 
    {
      "type_key": "Map", 
      "keys": [
        "mtriple"
      ], 
      "data": [31]
    }, 
    {
      "type_key": "runtime.String", 
      "repr_str": "x86_64-unknown-linux-gnu"
    }, 
    {
      "type_key": "Map"
    }, 
    {
      "type_key": "Target", 
      "attrs": {
        "attrs": "30", 
        "features": "32", 
        "host": "0", 
        "keys": "29", 
        "kind": "24", 
        "tag": "28"
      }
    }, 
    {
      "type_key": "runtime.String"
    }
  ], 
  "b64ndarrays": [
    "…", 
    "…", 
    "…"
  ], 
  "attrs": {"tvm_version": "0.16.0"}
}